…
me_seeds', 'sys', 'torch', 'torchvision', 'transforms', 'vutils', 'wandb', 'weights_init', 'workers', 'workspace_dir']
['Generator', 'batch_size', 'beta1', 'ckpt_dir', 'clip_value', 'cudnn', 'dataloader', 'dataroot', 'dataset', 'device', 'drive_dir', 'dset', 'get_dataset', 'glob', 'image_size', 'log_dir', 'lr', 'n_critic', 'nc', 'ndf', 'ngf', 'ngpu', 'nn', 'np', 'num_epochs', 'nz', 'optim', 'os', 'plt', 'qqdm', 'random', 'real_batch', 'same_seeds', 'sys', 'torch', 'torchvision', 'transforms', 'vutils', 'wandb', 'weights_init', 'workers', 'workspace_dir']
Generator(
  (main): Sequential(
    (0): ConvTranspose2d(100, 512, kernel_size=(4, 4), stride=(1, 1), bias=False)
    (1): BatchNorm2d(512, eps=1e-05, momentum=0.1, affine=True, track_running_stats=True)
    (2): ReLU(inplace=True)
    (3): ConvTranspose2d(512, 256, kernel_size=(4, 4), stride=(2, 2), padding=(1, 1), bias=False)
    (4): BatchNorm2d(256, eps=1e-05, momentum=0.1, affine=True, track_running_stats=True)
    (5): ReLU(inplace=True)
    (6): ConvTranspose2d(256, 128, kernel_size=(4, 4), stride=(2, 2), padding=(1, 1), bias=False)
    (7): BatchNorm2d(128, eps=1e-05, momentum=0.1, affine=True, track_running_stats=True)
    (8): ReLU(inplace=True)
    (9): ConvTranspose2d(128, 64, kernel_size=(4, 4), stride=(2, 2), padding=(1, 1), bias=False)
    (10): BatchNorm2d(64, eps=1e-05, momentum=0.1, affine=True, track_running_stats=True)
    (11): ReLU(inplace=True)
    (12): ConvTranspose2d(64, 3, kernel_size=(4, 4), stride=(2, 2), padding=(1, 1), bias=False)
    (13): Tanh()
  )
)
Discriminator(
  (main): Sequential(
    (0): Conv2d(3, 64, kernel_size=(4, 4), stride=(2, 2), padding=(1, 1), bias=False)
    (1): LeakyReLU(negative_slope=0.2, inplace=True)
    (2): Conv2d(64, 128, kernel_size=(4, 4), stride=(2, 2), padding=(1, 1), bias=False)
    (3): BatchNorm2d(128, eps=1e-05, momentum=0.1, affine=True, track_running_stats=True)
    (4): LeakyReLU(negative_slope=0.2, inplace=True)
    (5): Conv2d(128, 256, kernel_size=(4, 4), stride=(2, 2), padding=(1, 1), bias=False)
    (6): BatchNorm2d(256, eps=1e-05, momentum=0.1, affine=True, track_running_stats=True)
    (7): LeakyReLU(negative_slope=0.2, inplace=True)
    (8): Conv2d(256, 512, kernel_size=(4, 4), stride=(2, 2), padding=(1, 1), bias=False)
    (9): BatchNorm2d(512, eps=1e-05, momentum=0.1, affine=True, track_running_stats=True)
    (10): LeakyReLU(negative_slope=0.2, inplace=True)
    (11): Conv2d(512, 1, kernel_size=(4, 4), stride=(1, 1), bias=False)
    (12): Sigmoid()
  )
)
Starting Training Loop...
 | Save some samples to ./logs/Epoch_001.jpg.
 | Save some samples to ./logs/Epoch_002.jpg.
 | Save some samples to ./logs/Epoch_003.jpg.
 | Save some samples to ./logs/Epoch_004.jpg.
 | Save some samples to ./logs/Epoch_005.jpg.
 | Save some samples to ./logs/Epoch_006.jpg.
 | Save some samples to ./logs/Epoch_007.jpg.
…
