
['os', 'sys', 'wandb', 'workspace_dir']
Downloading...
From: https://drive.google.com/uc?id=1-0BZidM2MmfususCIFjdATw40MGSP-1q
To: /home/icmr/Documents/yuko29/GPU_final_project/GAN/landscape_data.zip
91.5MB [00:00, 114MB/s]
['os', 'sys', 'wandb', 'workspace_dir']
['os', 'sys', 'wandb', 'workspace_dir']
Generator(
  (model): Sequential(
    (0): Linear(in_features=100, out_features=128, bias=True)
    (1): LeakyReLU(negative_slope=0.2, inplace=True)
    (2): Linear(in_features=128, out_features=256, bias=True)
    (3): BatchNorm1d(256, eps=0.8, momentum=0.1, affine=True, track_running_stats=True)
    (4): LeakyReLU(negative_slope=0.2, inplace=True)
    (5): Linear(in_features=256, out_features=512, bias=True)
    (6): BatchNorm1d(512, eps=0.8, momentum=0.1, affine=True, track_running_stats=True)
    (7): LeakyReLU(negative_slope=0.2, inplace=True)
    (8): Linear(in_features=512, out_features=1024, bias=True)
    (9): BatchNorm1d(1024, eps=0.8, momentum=0.1, affine=True, track_running_stats=True)
    (10): LeakyReLU(negative_slope=0.2, inplace=True)
    (11): Linear(in_features=1024, out_features=12288, bias=True)
    (12): Tanh()
  )
)
Discriminator(
  (main): Sequential(
    (0): Linear(in_features=12288, out_features=512, bias=True)
    (1): LeakyReLU(negative_slope=0.2, inplace=True)
    (2): Linear(in_features=512, out_features=256, bias=True)
    (3): LeakyReLU(negative_slope=0.2, inplace=True)
    (4): Linear(in_features=256, out_features=1, bias=True)
    (5): Sigmoid()
  )
)
Starting Training Loop...
 | Save some samples to ./logs/Epoch_001.jpg.
 | Save some samples to ./logs/Epoch_002.jpg.
 | Save some samples to ./logs/Epoch_003.jpg.
 | Save some samples to ./logs/Epoch_004.jpg.
 | Save some samples to ./logs/Epoch_005.jpg.
 | Save some samples to ./logs/Epoch_006.jpg.
 | Save some samples to ./logs/Epoch_007.jpg.
…
